Layer (type)                 Output Shape              Param #   
=================================================================
conv1d_1 (Conv1D)            (None, 3750, 128)         12928     
_________________________________________________________________
conv1d_2 (Conv1D)            (None, 3750, 128)         327808    
_________________________________________________________________
max_pooling1d_1 (MaxPooling1 (None, 187, 128)          0         
_________________________________________________________________
conv1d_3 (Conv1D)            (None, 187, 256)          655616    
_________________________________________________________________
global_max_pooling1d_1 (Glob (None, 256)               0         
_________________________________________________________________
dropout_1 (Dropout)          (None, 256)               0         
_________________________________________________________________
dense_1 (Dense)              (None, 4)                 1028      
=================================================================
Total params: 997,380
Trainable params: 997,380
Non-trainable params: 0
_________________________________________________________________

Loading EDF files from /media/sasi/WD500/hypno/cesga/SHHS-250
Dataset: train
shhs2-204889
shhs2-204937
shhs2-204938
shhs2-204956
shhs2-204963
shhs2-204970
shhs2-204987
shhs2-203106
shhs2-203112
…
